examm/checkpoints/diabetes_mlp_best.pt (torch, 14925 bytes, 5 tensors)

net.0.weight f4 [64, 8]
0.23491147 0.4551436 -0.09916956 0.30989555 -0.030344311 0.13303334 -0.13667968 0.09238302
0.29911977 -0.24198924 0.29796427 0.11758177 0.27266875 0.15469766 0.24460347 -0.1238614
0.26390108 0.07495733 -0.1925101 -0.009024172 -0.19794555 -0.110909455 -0.17871921 0.25615314
-0.32518333 -0.30127478 -0.03518511 -0.2163566 0.073699325 -0.37598854 0.26225507 -0.36825693
0.248073 0.19992582 -0.13963316 0.14938082 0.028615346 0.35938293 0.08221991 -0.13502975
0.1340291 -0.019365981 0.15681374 0.34278283 0.23870489 -0.034973938 0.24121204 0.07055666
0.24836451 -0.1539143 -0.32681772 -0.09553952 -0.23545 0.3263956 0.14295822 0.12098715
0.072575174 -0.04275706 0.2752181 -0.28486803 0.046610635 -0.2603362 0.045307525 -0.17121251
0.15486984 -0.023139073 0.35526058 -0.12528221 -0.20434728 -0.10652263 0.31123742 0.09143504
0.38209814 -0.2646911 -0.35570046 -0.31475544 -0.21470372 0.1354231 0.12597047 0.3686671
-0.1935558 -0.25798523 0.13333148 -0.20108996 0.24042673 -0.1958679 0.16401128 -0.32556152
-0.21239592 0.111000024 0.035631984 -0.16936035 0.16205515 0.17449018 -0.30088675 -0.22368425
0.31706005 -0.20121914 -0.098462 -0.2874181 -0.16931576 0.07135847 -0.10948309 -0.26611188
0.051318496 -0.22721669 -0.26102132 -0.28237808 -0.36155608 -0.23604675 0.32642007 0.18537582
0.074569635 -0.39338616 -0.21359436 -0.12315315 0.1224807 -0.35602415 -0.2151587 -0.2742313
-0.05582637 -0.2508777 0.0035126389 -0.18295139 -0.14465833 -0.25622687 -0.19512653 -0.3842614
0.29796988 -0.09424196 0.28034726 0.13743368 -0.2656129 0.21029907 -0.12815209 -0.11458496
-0.3261009 -0.4184009 0.09039528 -0.10991811 0.13002884 -0.36050507 0.22714789 -0.35533646
-0.10647824 -0.004786836 0.12824914 0.32827806 0.27250046 -0.32129934 -0.021161627 -0.26295272
-0.049625687 -0.2991169 0.30058116 -0.28508037 0.22869386 -0.028024757 0.118142135 -0.29249722
0.3363449 0.109638214 0.051059306 -0.3232868 0.14413574 -0.017778799 -0.1814444 0.36167452
0.064763784 -0.29940322 -0.1406778 -0.009061685 0.19920711 -0.1591584 -0.27728269 -0.16562241
-0.3193597 0.119419806 0.19858733 -0.37151125 0.04045813 0.18265262 0.0030522612 -0.14985803
0.13771018 0.21974415 0.10322409 -0.04411466 -0.075522535 0.045626704 -0.10536366 -0.15185368
0.21582714 0.4262953 -0.079130076 -0.053940035 -0.005458474 0.0573517 0.09594154 0.007707027
-0.32915083 -0.21716349 0.24716984 0.19142379 -0.04864325 -0.2726344 -0.31640363 -0.39468062
-0.06246774 0.11685399 0.242331 0.23630531 -0.2954564 -0.17447713 -0.07841124 0.353739
0.0022418206 -0.22659816 0.10166461 -0.1127058 -0.20628703 0.12667227 -0.28008914 -0.13513027
-0.3579477 0.16343205 0.2444124 0.21466061 -0.3018009 -0.41413075 -0.3106618 0.18352965
0.12756397 0.23509018 0.1663548 0.0664341 -0.030974578 -0.30478626 -0.38310143 -0.36638504
0.20195039 -0.23576604 -0.07716277 -0.13208677 -0.0054314123 -0.2619978 -0.18629666 0.16808082
-0.11563557 0.2664024 -0.09443076 -0.26982215 -0.0049958085 -0.16142637 -0.12537661 -0.34510836
00000000: a28c 703e 9508 e93e 6919 cbbd a1aa 9e3e
00000010: a294 f8bc e439 083e c2f5 0bbe 4f33 bd3d
00000020: 3a26 993e 07cc 77be c68e 983e b6ce f03d
00000030: 3d9b 8b3e 1069 1e3e 5579 7a3e 0cab fdbd
00000040: 0b1e 873e 3b83 993d 5e21 45be 1fda 13bc
00000050: 3db2 4abe 7f24 e3bd 2b02 37be 8126 833e
00000060: 6e7e a6be b040 9abe 431e 10bd 968c 5dbe
00000070: acef 963d 9281 c0be 4c46 863e 2c8c bcbe
00000080: d906 7e3e 5bb9 4c3e fffb 0ebe 49f7 183e
00000090: bb6a ea3c 0a01 b83e ea62 a83d 3d45 0abe
000000a0: ed3e 093e 68a5 9ebc c893 203e 3b81 af3e
000000b0: 0e6f 743e d540 0fbd 4a00 773e 0380 903d
000000c0: 4453 7e3e b69b 1dbe a754 a7be 39aa c3bd
000000d0: ce19 71be 531d a73e a463 123e 1cc8 f73d
000000e0: 4ba2 943d 0722 2fbd 63e9 8c3e 39da 91be
000000f0: cbea 3e3d c94a 85be 6294 393d 5552 2fbe
00000100: 3396 1e3e 278e bdbc b7e4 b53e fb49 00be
00000110: 6a40 51be 8928 dabd 835a 9f3e 4b42 bb3d
00000120: 5ea2 c33e 9885 87be 5f1e b6be a027 a1be
00000130: 4bdb 5bbe 5aac 0a3e 67fe 003e efc1 bc3e
00000140: 7e33 46be a416 84be 0c88 083e 87ea 4dbe
00000150: 6d32 763e 9891 48be 93f2 273e 00b0 a6be
00000160: 517e 59be fb53 e33d d8f2 113d cd6c 2dbe
00000170: c9f1 253e 8ead 323e d40d 9abe 7c0d 65be
00000180: b255 a23e 640c 4ebe 72a6 c9bd 7728 93be
00000190: 1c61 2dbe 6424 923d ac38 e0bd d13f 88be
000001a0: 5833 523d 7eab 68be 96a4 85be dc93 90be
000001b0: e11d b9be 3db6 71be 8820 a73e 29d3 3d3e
000001c0: f7b7 983d e969 c9be 7bb8 5abe b837 fcbd
000001d0: 29d7 fa3d cc48 b6be 9052 5cbe 0c68 8cbe
000001e0: 31aa 64bd 0b73 80be 4d34 663b 9c57 3bbe
000001f0: 5021 14be 2b30 83be 40cf 47be e9bd c4be
00000200: 828f 983e ee01 c1bd ad89 8f3e 6abb 0c3e
00000210: 6afe 87be a458 573e 4d3a 03be 85ab eabd
00000220: b2f6 a6be a538 d6be 2921 b93d bf1c e1bd
00000230: 4826 053e 1f94 b8be 7599 683e a9ee b5be
00000240: 4311 dabd e4da 9cbb be53 033e 1014 a83e
00000250: 2e85 8b3e 5981 a4be 265b adbc bda1 86be
00000260: 4e44 4bbd da25 99be c6e5 993e 0ef6 91be
00000270: b92e 6a3e 2d94 e5bc 81f4 f13d 32c2 95be
00000280: 6635 ac3e 008a e03d 9023 513d d985 a5be
00000290: 5298 133e d8a4 91bc 90cc 39be 672d b93e
000002a0: e0a2 843d 614b 99be d70d 10be 7677 14bc
000002b0: f3fc 4b3e 6bfa 22be fff7 8dbe ec98 29be
000002c0: 1d83 a3be 5f92 f43d 7a5a 4b3e b936 bebe
000002d0: 6db7 253d 4a09 3b3e 7208 483b 6274 19be
000002e0: e603 0d3e 9c04 613e 2767 d33d 93b1 34bd
000002f0: 8fab 9abd 11e3 3a3d e7c8 d7bd 887f 1bbe
00000300: ca01 5d3e 6143 da3e f30e a2bd 3af0 5cbd
00000310: 00dd b2bb 9ee9 6a3d 007d c43d 3a8b fc3b
00000320: 7586 a8be 1b60 5ebe 171a 7d3e 9904 443e
00000330: 253e 47bd bc96 8bbe a8ff a1be 9413 cabe
00000340: 2cde 7fbd 2551 ef3d 9e25 783e 05fa 713e
00000350: 1046 97be 22aa 32be 1296 a0bd 471d b53e
00000360: 82eb 123b 5909 68be 8935 d03d 4cd2 e6bd
00000370: e83c 53be 60b6 013e d867 8fbe 975f 0abe
00000380: ec44 b7be bb5a 273e 3f47 7a3e fecf 5b3e
00000390: a685 9abe f208 d4be 100f 9fbe 32ef 3b3e
000003a0: 21a0 023e 7bbb 703e ea58 2a3e 9a0e 883d
000003b0: 66be fdbc f20c 9cbe df25 c4be d296 bbbe
000003c0: 15cc 4e3e a76c 71be 8407 9ebd c141 07be
000003d0: fdf9 b1bb 9324 86be 8dc4 3ebe 611d 2c3e
000003e0: 57d2 ecbd e565 883e ea64 c1bd 2126 8abe
000003f0: e1b3 a3bb f44c 25be ba62 00be 0bb2 b0be

net.0.bias f4 [64]
0.08730627 -0.2775209 -0.2115082 -0.26823214 0.27088004 -0.3345313 0.27930072 0.012107057
-0.028720917 0.18728103 -0.030792551 0.23330303 0.30692855 -0.30159304 0.20098242 0.08927995
0.057683706 0.077624656 0.1851888 -0.0502407 -0.038953044 0.39391723 0.21868783 -0.028523054
-0.27966505 0.08864103 -0.23106287 0.3257397 -0.18189102 -0.0446901 -0.050461423 0.08310778
0.38705915 0.08821972 0.19474153 0.32154456 0.2286028 -0.05684814 -0.045799866 0.12928621
-0.05790021 0.18251996 -0.08196334 -0.21075149 0.12471044 0.14725259 0.16601811 0.33617464
0.21431231 0.36351308 0.034233946 -0.27357265 -0.20057273 -0.1512692 -0.3196051 -0.15433843
-0.34509116 -0.2744529 -0.23219188 -0.30017254 -0.19439396 0.08128381 0.28408256 -0.07862792
00000000: a1cd b23d 3817 8ebe 9b95 58be b955 89be
00000010: cab0 8a3e b047 abbe 8100 8f3e ad5c 463c
00000020: 2148 ebbc 99c6 3f3e a940 fcbc fde6 6e3e
00000030: bd25 9d3e 676a 9abe 56ce 4d3e 68d8 b63d
00000040: c045 6c3d adf9 9e3d 22a2 3d3e 31c9 4dbd
00000050: 3a8d 1fbd 85af c93e b4ef 5f3e 2ea9 e9bc
00000060: 4230 8fbe 6e89 b53d bf9b 6cbe 5bc7 a63e
00000070: a441 3abe f70c 37bd a3b0 4ebd 6934 aa3d
00000080: 9e2c c63e 8aac b43d 536a 473e 7da1 a43e
00000090: da16 6a3e 98d9 68bd a498 3bbd 9b63 043e
000000a0: c528 6dbd 83e6 3a3e 65dc a7bd 3dcf 57be
000000b0: 3068 ff3d 62c9 163e a700 2a3e 151f ac3e
000000c0: b074 5b3e 631e ba3e e538 0c3d b711 8cbe
000000d0: f062 4dbe 50e6 1abe 48a3 a3be e50a 1ebe
000000e0: caaf b0be 1785 8cbe b5c3 6dbe 37b0 99be
000000f0: 360f 47be 2078 a63d 4573 913e ad07 a1bd

net.3.weight f4 [32, 64]
0.113229185 0.09151007 0.0016150809 -0.056547377 0.18326646 -0.07558018 0.065310776 0.059311546
0.006897845 0.047804587 -0.11261958 0.07412082 0.092603624 0.005108315 -0.018176463 0.060723856
0.0100742495 -0.001872705 -0.039548695 -0.14879888 0.074614875 -0.117881365 0.15832461 0.15695056
0.029560613 0.009596595 -0.07179505 0.017224591 -0.013244556 -0.059112933 -0.10260435 0.05208905
0.0884774 0.2283347 0.17435874 -0.0871467 -0.05149233 0.054897845 0.10392523 0.10593646
-0.041240223 -0.1225208 0.062892966 0.1208818 0.041509565 0.002551611 -0.06695999 -0.04242524
0.09983743 0.025079248 0.047118254 0.0732307 -0.041780863 0.1257816 0.0075322967 0.022710714
0.020942409 0.20919289 -0.04071541 -0.07987528 -0.099668324 0.06340048 -0.015582445 0.12017336
0.028563116 -0.14522845 0.11223177 0.11963555 -0.08770663 -0.06227918 0.058698043 0.02183162
0.012261969 -0.0081238 0.18249229 -0.047433954 0.118107185 0.029443167 0.07713891 0.14067681
0.015160203 -0.019075373 0.051125243 0.16420534 -0.06579496 0.11454302 -0.13829973 0.014009855
-0.00913045 0.073399365 0.07387836 0.045889385 0.08373511 -0.06476789 0.041404035 0.05578716
0.19808148 0.0053370297 -0.12255723 0.17192678 -0.018798912 0.037535187 -0.12366904 -0.03748992
0.1682223 0.08494421 -0.082701564 0.027032536 -0.004331025 0.15415274 -0.030890197 0.010007445
-0.12850963 -0.07418195 0.04581055 0.08713508 -0.02184269 0.052666105 -0.031224035 0.08054346
0.14846118 -0.002745859 -0.08430017 0.13722445 0.11043624 -0.06585604 -0.047416773 -0.19240616
0.18649401 -0.07112012 0.10538818 0.022866558 -0.013631933 0.07988227 0.047962453 0.035181563
0.06950735 -0.09428689 0.013788242 0.17780949 0.11516836 -0.13271308 -0.06180758 -0.04806988
0.05296596 -0.011549632 0.053651087 -0.032022264 0.018736215 0.007511158 0.12959458 0.014949934
-0.0038816708 -0.14248438 0.0895365 -0.07055446 -0.12571752 0.109071404 0.029036405 0.17016435
-0.11268855 0.021183675 0.14743401 0.072174266 0.10326287 -0.055609323 0.11193577 0.22989151
-0.21298173 -0.14444308 0.1688588 -0.1581263 0.0042632637 0.049369384 -0.032075852 0.05429761
0.07705419 0.10993605 0.1647125 -0.028660614 0.0630481 0.17187652 0.023358328 0.20984653
-0.07916005 0.10672897 -0.00874129 -0.047620736 -0.08287427 0.19469017 0.11450695 0.037969355
-0.07374149 0.11122267 0.055743665 0.10709104 -0.07216031 -0.019540297 -0.008016252 0.025988204
-0.09170227 0.021371637 0.1181434 -0.014887233 0.02510424 -0.023275012 0.11683673 0.12878479
-0.02943972 -0.029391464 0.10410865 0.11861538 -0.049624033 0.19434077 -0.07577991 0.011803456
-0.00095419097 -0.004814496 0.098113544 -0.031813946 -0.042772252 -0.010165592 -0.035939705 0.116815224
0.07033864 -0.010698986 -0.11902539 0.16749287 -0.02082984 0.0058552865 -0.04657217 0.025499716
0.20779644 0.006154044 -0.0762868 0.038120966 0.030152474 0.09012117 0.15118955 -0.022711778
0.04391875 0.038634256 -0.023609947 0.058678728 0.028294543 0.03004062 -0.13361178 -0.047561046
0.011921359 -0.10925231 0.0544745 -0.0694767 0.08555732 -0.0840486 0.057082567 -0.086362824
00000000: b4e4 e73d a269 bb3d 1fb1 d33a 399e 67bd
00000010: 34aa 3b3e c8c9 9abd a8c1 853d aaf0 723d
00000020: 5107 e23b bece 433d 18a5 e6bd a8cc 973d
00000030: f8a6 bd3d a763 a73b cee6 94bc 94b9 783d
00000040: 770e 253c 8d75 f5ba d0fd 21bd bc5e 18be
00000050: afcf 983d c96b f1bd d91f 223e a6b7 203e
00000060: 1929 f23c 093b 1d3c 4809 93bd 961a 8d3c
00000070: b2ff 58bc 6720 72bd 3b22 d2bd 545b 553d
00000080: a433 b53d 92d0 693e 198b 323e f879 b2bd
00000090: 9fe9 52bd 90dc 603d c0d6 d43d 37f5 d83d
000000a0: 82eb 28bd 2fec fabd 07ce 803d e190 f73d
000000b0: ef05 2a3d ee38 273b 5222 89bd 17c6 2dbd
000000c0: 9177 cc3d ff72 cd3c 12ff 403d faf9 953d
000000d0: 6922 2bbd e4cc 003e 7cd1 f63b d20b ba3c
000000e0: 6a8f ab3c a936 563e 34c5 26bd a795 a3bd
000000f0: e81e ccbd 1cd8 813d 834d 7fbc 731d f63d
00000100: 32fd e93c c4b6 14be c5d9 e53d 7c03 f53d
00000110: 899f b3bd 7418 7fbd 5c6d 703d 3ad8 b23c
00000120: 6de6 483c b019 05bc 42df 3a3e 1b4a 42bd
00000130: 2ee2 f13d cc32 f13c 01fb 9d3d 950d 103e
00000140: 8062 783c f543 9cbc b468 513d 7225 283e
00000150: 82bf 86bd 8895 ea3d 729e 0dbe 9789 653c
00000160: e297 15bc 6852 963d 8a4d 973d 82f6 3b3d
00000170: 507d ab3d 07a5 84bd 4797 293d 1481 643d
00000180: dfd5 4a3e 40e2 ae3b 49ff fabd 930d 303e
00000190: 2d00 9abc 7fbe 193d 3246 fdbd 088f 19bd
000001a0: 7742 2c3e 3bf7 ad3d 705f a9bd 5673 dd3c
000001b0: 45eb 8dbb 37da 1d3e 700d fdbc 44f6 233c
000001c0: 0798 03be b5ec 97bd d8a3 3b3d e073 b23d
000001d0: 71ef b2bc 6ab8 573d 8cc9 ffbc f8f3 a43d
000001e0: 3506 183e dff3 33bb 91a5 acbd 9184 0c3e
000001f0: 652c e23d 88df 86bd 1738 42bd 1f06 45be
00000200: 49f8 3e3e 6da7 91bd c2d5 d73d a652 bb3c
00000210: 7958 5fbc 5199 a33d 4774 443d 8b1a 103d
00000220: df59 8e3d 7c19 c1bd 14e8 613c b113 363e
00000230: 64dd eb3d f0e5 07be f229 7dbd ece4 44bd
00000240: d6f2 583d ab3a 3dbc 3ec1 5b3d c729 03bd
00000250: b17c 993c 2920 f63b 71b4 043e 91f0 743c
00000260: a163 7ebb 6de7 11be ea5e b73d db7e 90bd
00000270: 18bc 00be d460 df3d c1dd ed3c 903f 2e3e
00000280: 41c9 e6bd 6389 ad3c f1f8 163e 1ad0 933d
00000290: 7c7b d33d 9ac6 63bd 953e e53d ae68 6b3e
000002a0: e217 5abe e3e8 13be 52e9 2c3e dceb 21be
000002b0: d9b2 8b3b 8d37 4a3d f861 03bd 2c67 5e3d
000002c0: 96ce 9d3d 2726 e13d 65aa 283e aac9 eabc
000002d0: 5d1f 813d 6600 303e f759 bf3c 02e2 563e
000002e0: aa1e a2bd b894 da3d a137 0fbc f60d 43bd
000002f0: fcb9 a9bd dc5c 473e 9f82 ea3d c185 1b3d
00000300: c705 97bd b6c8 e33d 7853 643d 8c52 db3d
00000310: c9c8 93bd f912 a0bc 9956 03bc 37e5 d43c
00000320: 66ce bbbd 9213 af3c 2bf5 f13d 95e9 73bc
00000330: 68a7 cd3c 3dab bebc 1848 ef3d 29e0 033e
00000340: 912b f1bc 5ec6 f0bc ea36 d53d 9fec f23d
00000350: 9242 4bbd 4401 473e 7f32 9bbd 4863 413c
00000360: ac22 7aba ebc2 9dbb c1ef c83d 574f 02bd
00000370: f531 2fbd 958d 26bc 8335 13bd d23c ef3d
00000380: b40d 903d cd4a 2fbc 95c3 f3bd 4083 2b3e
00000390: 57a3 aabc b4dd bf3b 76c2 3ebd c8e4 d03c
000003a0: 97c8 543e dda7 c93b 413c 9cbd bb24 1c3d
000003b0: 5202 f73c 7391 b83d 6fd1 1a3e 0d0e babc
000003c0: 26e4 333d f43e 1e3d a669 c1bc 1b59 703d
000003d0: f5c9 e73c bf17 f63c 87d1 08be 5fcf 42bd
000003e0: ce51 433c adbf dfbd a720 5f3d cd49 8ebd
000003f0: ad38 af3d ac21 acbd 69cf 693d fede b0bd

net.3.bias f4 [32]
0.004761271 0.18016693 -0.01254688 0.12331871 0.10931521 -0.058390323 0.12576765 0.02898017
0.12784109 0.15201385 -0.03168131 -0.03290668 0.11866179 0.044163764 0.06284289 0.11950218
-0.043800928 0.04086059 0.13601762 0.11492938 0.00392323 -0.004071739 -0.03848196 -0.0006578573
0.058498554 -0.07167958 -0.08814616 0.042082943 0.045379926 -0.09638876 -0.06517928 -0.060270213
00000000: 7004 9c3b ae7d 383e 6e91 4dbc 858e fc3d
00000010: a7e0 df3d b12a 6fbd 3cc9 003e d267 ed3c
00000020: c6e8 023e 85a9 1b3e 43c4 01bd 28c9 06bd
00000030: f404 f33d 10e5 343d c6b3 803d 8fbd f43d
00000040: 9a68 33bd 6f5d 273d 3448 0b3e 1860 eb3d
00000050: 708e 803b 396c 85bb 429f 1dbd 0e74 2cba
00000060: 2e9c 6f3d becc 92bd f985 b4bd 2a5f 2c3d
00000070: 4de0 393d 7867 c5bd b77c 85bd e6dd 76bd

net.6.weight f4 [1, 32]
0.15809296 -0.205081 0.1374595 -0.108570635 -0.1761336 -0.10962872 -0.2512855 -0.13114922
-0.088686965 -0.18993136 -0.19634491 0.15234628 -0.061112933 -0.11923678 -0.09746872 0.21788973
-0.21646966 -0.17701493 -0.20020053 -0.1020811 -0.09134429 -0.13957034 0.22234063 -0.19209994
0.2234443 -0.09253436 -0.02105958 0.13442042 -0.1958893 0.16761643 -0.15140972 -0.068967365
00000000: 1fe3 213e c100 52be 2fc2 0c3e 485a debd
00000010: 5e5c 34be 0685 e0bd 7ea8 80be fb4b 06be
00000020: 83a1 b5bd 5e7d 42be a40e 49be aa00 1c3e
00000030: 8e51 7abd 6a32 f4bd ae9d c7bd 7c1e 5f3e
00000040: 39aa 5dbe 6743 35be 5e01 4dbe e50f d1bd
00000050: b712 bbbd 87eb 0ebe 43ad 633e d9b5 44be
00000060: 95ce 643e a882 bdbd 2485 acbc 82a5 093e
00000070: 3497 48be a4a3 2b3e 260b 1bbe c33e 8dbd
