examm/checkpoints/diabetes_mlp_best.pt (torch, 14989 bytes, 5 tensors)

net.0.weight f4 [64, 8]
00000000: 9a1c 6f3e 0a67 e33e c9d5 27be 2e03 853e
00000010: d5cb 83bd 490a c13d 7a18 febd c28d a63d
00000020: a61a a23e 6cb0 71be 7976 793e a1a8 063e
00000030: cc45 8d3e 508b 1f3e 5bb4 543e 1ff2 f2bd
00000040: f3a3 753e d0ee 8c3d 10fa 5abe 550a 7fbd
00000050: 662c 7dbe 38d9 00be 6bfa 3fbe 3bc6 813e
00000060: 4ae6 abbe bc49 94be c5e0 95bd 7020 8bbe
00000070: d313 cf3d 27db d1be 3903 5b3e d746 c0be
00000080: 33f1 733e 2298 223e 4ac4 36be b923 293e
00000090: ed2f 2fbd 0903 9d3e da47 f43d b258 3fbe
000000a0: 7568 ea3d 0724 36bd 2ca0 033e ee0b ab3e
000000b0: dfd4 773e 19ff 05bb 719b 853e fac9 043d
000000c0: 52ee 843e 4ded edbd 0c77 a7be ed40 a2bd
000000d0: 330c 6cbe 7452 ac3e c6e9 013e 61ed ff3d
000000e0: 0a18 ce3d 3f96 9abc a1e6 9a3e 1622 a3be
000000f0: dd53 b53d 9dc1 57be 3ede d33d a18a 00be
00000100: 77e1 3a3e b76c 63bd ee4e 993e 3e7f 4abe
00000110: e426 6ebe 50b4 07be 46bd a43e 7a97 b63d
00000120: 0725 b93e b432 72be d0b4 b1be d93c b7be
00000130: 53f2 77be 4b29 db3d 5d1e ee3d 69d7 bd3e
00000140: 2732 55be 673c 7dbe ebf7 013e 7d7f 4fbe
00000150: 996b 773e d9e2 3abe 403a 243e 8d2d b1be
00000160: 556c 85be 18f0 143e 6494 8e3d e970 4dbe
00000170: 5ca0 413e ee78 3a3e b238 8fbe ed1c 37be
00000180: faa7 9f3e a653 29be 0ebb f8bd 8654 8fbe
00000190: 803e c1bd ecb2 d03d ce80 48be 40fe 88be
000001a0: 1e72 813d 1c65 94be 4d89 6ebe 8b3d 8cbe
000001b0: 7cd9 b7be 8c40 89be a1b9 9b3e 41a5 563e
000001c0: 0580 2f3d c166 c1be da8e 5bbe 3f40 21be
000001d0: f0ab 013e 9c05 b3be c79a 62be 544c 9cbe
000001e0: 9626 a6bd d314 6cbe bd85 1dbd 3832 4bbe
000001f0: 0503 0cbe 4e1f 72be 4892 3dbe 1e2e d2be
00000200: 1618 953e ca7a cab9 8d67 9b3e 35a9 333e
00000210: c52d 8bbe 066d ae3e d2d8 c13b aec8 0ebe
00000220: d20f a7be 31a4 dfbe 23f2 d03d 1469 e1bd
00000230: 39fb 113e ce32 b1be 3f0b 663e cde9 b3be
00000240: fb64 e7bd b100 9fbc da55 e43d 2193 b83e
00000250: 2562 953e 69cf 90be f7d6 31bd d72d 9abe
00000260: e9e5 87bd 9f06 87be bf3a 973e 0d42 a7be
00000270: 2e7b 7a3e a189 30bd 5b20 ca3d 8460 aebe
00000280: e038 a53e da5e 173e 5d2a 743a 2c13 aebe
00000290: d2b0 a03d e59a 5ebd 9500 d0bd bb7d a13e
000002a0: 6b45 f23d 4d98 a6be 0723 03be d567 37bd
000002b0: bbb9 2c3e c1e8 34be 7e37 96be be59 2fbe
000002c0: 42db b0be 01f0 e03d 655b 3b3e 9e09 c3be
000002d0: a621 d23c 736e 0e3e 7591 3fbd d667 21be
000002e0: a04e 1f3e f981 833e 80e5 0b3e 0a7c a5bb
000002f0: 6150 9fbd 25e7 8f3d 060f 5cbd be3c b2bd
00000300: f762 803e 3058 db3e 883a 08be 7aa1 9fbd
00000310: 3b54 b0bc e6f0 6f3d b245 b13d b2a0 2bbd
00000320: 8246 bdbe dbe1 54be 8638 503e 963a 563e
00000330: a84c 8dbd 1b93 93be 4f32 8dbe 9e72 ddbe
00000340: 4772 5fbd 9219 2b3e 8782 8a3e a47c 9c3e
00000350: 64fd 78be ef74 9dbd ef46 c0bd af5e ac3e
00000360: 53a3 fe3c ccf9 75be 500c ae3d fac2 05be
00000370: 2881 48be c1aa 133e a914 96be 1edf 11be
00000380: bef9 b0be 5736 2d3e 056e 6c3e 8238 4d3e
00000390: fc03 adbe 78dc cdbe 9405 98be c9ef 313e
000003a0: 3ffe 013e 785e 393e ed4b 563e 9050 803d
000003b0: 2a44 3fba ff50 9cbe 24b3 d0be 1236 babe
000003c0: dea5 523e 7cd2 80be 14e4 77bd 3983 febd
000003d0: 937c 2a3c c7e8 92be 2c81 6cbe 7ca1 423e
000003e0: 8e2f 17be 25ae 8b3e 519a 06be 7465 84be
000003f0: 7186 83bb 9c3a e6bd 1749 a2bd 5236 a8be
0.23350754 0.4441455 -0.16390146 0.25978988 -0.06435362 0.0942579 -0.12407012 0.08132507
0.31660956 -0.23602456 0.243616 0.13150264 0.27592313 0.15580487 0.20771925 -0.11862587
0.23988323 0.06881487 -0.21384454 -0.062265713 -0.24723968 -0.12582862 -0.1874787 0.2534655
-0.33574134 -0.28962505 -0.07318262 -0.27173185 0.10111203 -0.40987512 0.21387948 -0.37554047
0.23822479 0.15878347 -0.17848316 0.16517533 -0.042770315 0.30666378 0.11927767 -0.18686178
0.11445705 -0.044467952 0.1285407 0.3340754 0.24202298 -0.002044624 0.26095155 0.032419182
0.25963074 -0.11617527 -0.32708013 -0.0792254 -0.23051529 0.33656657 0.12686834 0.12496448
0.10063179 -0.018870471 0.3025408 -0.31861943 0.08853886 -0.21069951 0.10345124 -0.12552883
0.1825007 -0.0555236 0.2994303 -0.19775102 -0.23257023 -0.13252378 0.32175654 0.089156106
0.36161062 -0.23652154 -0.3470826 -0.3578861 -0.24213533 0.107012354 0.11626885 0.37078407
-0.20819913 -0.24730073 0.1269223 -0.20263477 0.24162139 -0.18250598 0.16037846 -0.34605065
-0.26059213 0.14544713 0.06961897 -0.20062603 0.18908828 0.18210194 -0.27972943 -0.17882128
0.31182843 -0.16535816 -0.12145053 -0.27994174 -0.09435749 0.10190377 -0.19580385 -0.26756477
0.06320594 -0.2898339 -0.23294564 -0.27390704 -0.35908115 -0.26807058 0.3041506 0.20961477
0.0428467 -0.37773708 -0.21441212 -0.15747164 0.12663245 -0.34965217 -0.22129355 -0.30526984
-0.081128284 -0.23054819 -0.03845762 -0.19843376 -0.13673027 -0.23644754 -0.18512833 -0.4105081
0.2911994 -0.00038619927 0.3035244 0.17545016 -0.27183357 0.34067553 0.0059157396 -0.1394374
-0.32629257 -0.43679956 0.10202434 -0.1100637 0.1425599 -0.34609073 0.22465228 -0.35139313
-0.11298557 -0.01940951 0.111491874 0.3604975 0.2917644 -0.2828324 -0.043417897 -0.30113098
-0.06635649 -0.2637224 0.29537007 -0.3266758 0.24461052 -0.043100003 0.098694526 -0.3405801
0.32269955 0.14782277 0.0009314174 -0.33999002 0.07846226 -0.054346938 -0.10156361 0.31541237
0.11829647 -0.3253807 -0.1280633 -0.044776756 0.16867726 -0.17666914 -0.29339212 -0.17124078
-0.3454228 0.10983277 0.18296583 -0.38093275 0.02565081 0.1390932 -0.046769578 -0.15762267
0.15557337 0.256851 0.13661766 -0.005050187 -0.07779003 0.07026509 -0.053725265 -0.08702992
0.25075504 0.4284072 -0.13303578 -0.07794471 -0.02152454 0.058579348 0.086558715 -0.041901298
-0.36967856 -0.20789282 0.20334062 0.20920786 -0.06899387 -0.2882317 -0.27577445 -0.43251508
-0.054552343 0.16708973 0.2705271 0.30563843 -0.24315411 -0.07688319 -0.093885295 0.33665988
0.031083738 -0.24021071 0.08498442 -0.13062659 -0.19580519 0.14420606 -0.29312637 -0.14245269
-0.34565538 0.1691526 0.23088844 0.20041087 -0.33792102 -0.40207267 -0.29691756 0.17376627
0.12694643 0.18102443 0.20927401 0.06265366 -0.0007296229 -0.30530545 -0.40761673 -0.36369377
0.20571086 -0.25160587 -0.060520247 -0.124273725 0.010405677 -0.2869322 -0.2309615 0.19006914
-0.14764234 0.272813 -0.13144805 -0.25858653 -0.0040138294 -0.112416476 -0.07924097 -0.32853943

net.0.bias f4 [64]
00000000: 3448 d03c 62be adbe b832 58be 3b65 7ebe
00000010: c8a2 6e3e abca b0be 53ba 8d3e 4f4a 87b9
00000020: 195c b1bc 6554 423e 3217 febc a0d7 643e
00000030: cec3 a53e 88b6 9bbe da00 4c3e b15f b63d
00000040: 1b02 b83d 29a0 4d3d 4077 583e 3bca 18bd
00000050: 2e09 e9bd 3acf cd3e 6e11 523e c6e4 01bd
00000060: 12e6 86be f14b e03d e8b1 6bbe 6602 903e
00000070: f3fa 61be ded8 18bd 6b44 34bd 432a 833d
00000080: 0ec2 b53e 385c 573d edc0 233e 102c af3e
00000090: fe7c 653e fbba b3bd e7ab 40bc 6090 e23d
000000a0: 9ebc 85bd 075d 113e 54df 72bd 9729 44be
000000b0: 26c1 e73d ec22 ec3d 8696 343e 35b2 a63e
000000c0: b576 4a3e 286a a03e 7eab 183c 860d adbe
000000d0: 7acc 6cbe 0158 15be 8382 a4be f059 4ebe
000000e0: e7c5 b2be b4c4 8cbe 4e56 84be d477 80be
000000f0: 44e2 44be 21e4 873d 3c96 9c3e 8f79 f7bd
0.025425054 -0.33934313 -0.21113098 -0.24843304 0.23304284 -0.34529623 0.27681217 -0.0002580457
-0.02165036 0.18977506 -0.03101692 0.2234788 0.3237595 -0.30412698 0.199222 0.089049704
0.089847766 0.05020157 0.2113924 -0.037302237 -0.11378704 0.40197164 0.20514461 -0.031712316
-0.26347405 0.10951985 -0.23017085 0.2812683 -0.22068386 -0.037316196 -0.04401056 0.06404545
0.35499614 0.05257818 0.15991564 0.34213305 0.22410962 -0.08775898 -0.011759735 0.110626936
-0.065301165 0.14195643 -0.059295014 -0.1915649 0.11316137 0.11530098 0.17635545 0.32557836
0.19771846 0.3133099 0.009318231 -0.3379938 -0.23124877 -0.14584352 -0.32130823 -0.20151496
-0.34916613 -0.27493823 -0.25847095 -0.25091422 -0.19226938 0.06635309 0.3058337 -0.12083732

net.3.weight f4 [32, 64]
00000000: 86a5 b53d 5a55 e43d 3b61 db3b 85d3 82bd
00000010: d06a 353e b126 15bd 03e5 f93c a02d 413d
00000020: c78b 583c 0754 893d 0d37 0dbe 9767 e83d
00000030: 6e44 363d 056b fe3c 2715 263c a35c a03d
00000040: 417a dcbc 8356 eebc 1ec2 46bd baa1 4ebe
00000050: ee96 3b3d f50c 0fbe 90a9 423e a99b f13d
00000060: 5be4 483c 22ae 19bd 2fc7 3fbd 67a1 34bd
00000070: 68e1 0cbd d0c7 babd 7d2e a4bd 6a3a 363d
00000080: 8ace ae3d 3e7c 583e e01a 2a3e ecb2 cebd
00000090: bd22 29bd 853f bf3d 3c9e 003e bdbb e13d
000000a0: 8b66 01be cbc9 1cbe 8f81 b03d 85e3 cc3d
000000b0: adc3 2a3d 79dc f13c 09a8 f9bd 7468 2cbd
000000c0: e48e ec3d 7053 f0bc b97f 683d 35be d03d
000000d0: 0b71 bebc f18b fc3d 6d17 203d 92a3 7b3c
000000e0: 50d3 4b3c c9eb 753e 6e1a 39bd d980 b3bd
000000f0: fc9e 06be f781 933d e690 fcbb 9851 de3d
00000100: ceff 1e3d b9b0 14be 77ba d13d a571 f63d
00000110: 6c56 eabd 26ba cdbd 7258 673d 78be c83a
00000120: 032e 72bc 5991 3dbd ea75 183e ab7e 42bd
00000130: 185f f83d 190c 143c 590c 963d 1f36 fd3d
00000140: fff4 1bbd 3f32 d2bc eaef 663d f0ee 0f3e
00000150: 5ab9 99bd ebc2 d53d 0128 20be 0885 4a3c
00000160: dbdc 13bd 0160 9c3d 5eeb 5f3d 0b17 1e3d
00000170: fb00 743d 4e4c 91bd 426e 9f3c f787 803d
00000180: 89f2 253e c344 d9b9 4ca6 0fbe d8bf 133e
00000190: cf9c 1bbd feb4 0f3d 2aa0 1bbe a5b7 28bd
000001a0: f221 283e 9158 a03d 8826 68bd b075 d2bc
000001b0: 1fb4 d6bb 82d2 043e eab3 04bd 31fb 6fbc
000001c0: 266f 06be 9ce6 8bbd 8207 1d3d bd2b ae3d
000001d0: afbf b3bc 989a 473d f13b 08bd e64c d23d
000001e0: 95c4 033e 3c5f c93b cc21 d0bd 619a 123e
000001f0: b7c4 893d 921b 9abd c26b b2bd d159 29be
00000200: 3319 383e 343f cfbd 60cb 923d d336 403d
00000210: 9a10 6abc c4cb 083d a11d a0bc 5897 a6bd
00000220: 1d84 8dbc 40c1 b6bd 498d 003c bd3e 553e
00000230: 2a0b 7a3d 84d5 1ebe 0e5e 2dbe 06d5 f9bd
00000240: 9e83 5f3d df89 8dbc ae4f 7a3c 76c8 86bd
00000250: 9703 213b 998c b7bd 0f5e b23d d225 1d3d
00000260: 2f5f 0c3c 011f 36be d0d6 a53d 7363 01be
00000270: 8fa6 37be 3e88 b63c c086 a7bd 9663 163e
00000280: d318 42be 6718 393c 6119 273e db73 72bc
00000290: 53fd 823d 3063 9cbc 7729 283e 1c3c 7b3e
000002a0: 3673 66be f310 40be 30be 5c3e c5e8 0abe
000002b0: ac9c 233b 0d61 be3d e062 19bd 10d4 263d
000002c0: 81af 553d 1765 b03d 0f33 193e c741 ccbc
000002d0: 5ed1 813d 3196 043e b186 ab3d 1cda 593e
000002e0: e0cb 1abe 5985 f73d 9ff9 b1bd 076d 3dbe
000002f0: 0e2a a1bd 35f4 4f3e 679d dc3d bd34 f23c
00000300: 8cec 75bd c8ea 073e 571e 583d 256f e83d
00000310: 1648 82bd 4424 42bd 60c4 3d3c 9b57 e43c
00000320: 7c01 42bd ffa7 bf3c 7c5c dd3d 51f2 42bc
00000330: 4fb9 723d d411 673a 11ab d73d c2c5 bf3d
00000340: e88a 24bd e46a 70bd 0edd 083e 0bbc 123e
00000350: 4c11 9ebc f18d 6a3e f8b6 e7bd 38af fb3a
00000360: e944 ccbc c045 a4bc 57b6 d43d 5dd9 e2bc
00000370: 049b 83bd 0239 64bc 02fc debc 812c 9d3d
00000380: 6067 853d 9ff7 efbc c1da 28be a209 273e
00000390: 3400 80bc 6bf0 01bd a718 7ebd c696 be3c
000003a0: 362e 503e 95e8 2ebc 6227 f2bd c968 3d3c
000003b0: 1b52 743d a058 a43d 26c5 0b3e be8d d63c
000003c0: d18f 4a3c 51d8 763d 8e28 60bd 9fd6 803d
000003d0: 4121 1f3d eb27 0d3d 59bc 24be 92ad 77bc
000003e0: 4974 6a3c b2c4 06be d14c 8c3d 38c3 1fbd
000003f0: 26f3 983d 501c 8fbd 1ef5 0a3d 4bef d2bd
0.08869462 0.11149092 0.0066949404 -0.063880004 0.17716527 -0.036413852 0.03050471 0.047162652
0.013216919 0.0670548 -0.13790531 0.11347883 0.044498853 0.03105689 0.010136879 0.07830169
-0.026913764 -0.029093986 -0.04852497 -0.20178881 0.045798235 -0.13969786 0.19009995 0.11797268
0.012261475 -0.03751958 -0.046820816 -0.044099238 -0.03439465 -0.091201425 -0.080166794 0.0444893
0.08535488 0.21141145 0.16611814 -0.100927204 -0.041292895 0.09338287 0.12560362 0.11022136
-0.12636773 -0.15311353 0.08618461 0.100043334 0.041690517 0.029524075 -0.12190253 -0.0420918
0.11550692 -0.029336661 0.05676243 0.10192529 -0.023247262 0.12331379 0.03908484 0.015358822
0.012440518 0.24015726 -0.04519122 -0.0876481 -0.13146585 0.07202523 -0.007707703 0.108554065
0.038818173 -0.1452054 0.102406435 0.12033395 -0.11442265 -0.100452706 0.056480832 0.0015315553
-0.014781478 -0.046281192 0.1488873 -0.04748408 0.12127513 0.009036087 0.07326574 0.123638384
-0.038075443 -0.025658725 0.056381144 0.14055991 -0.07506056 0.10437568 -0.1564026 0.012360819
-0.036099296 0.07635499 0.054667823 0.038596194 0.059571248 -0.07094632 0.019461755 0.06275933
0.16205801 -0.00041440697 -0.14028281 0.14428651 -0.03799134 0.035084717 -0.15197816 -0.041190762
0.16419199 0.07829393 -0.05667737 -0.025690883 -0.006552234 0.12970927 -0.032398142 -0.014647291
-0.13128337 -0.068310946 0.038337238 0.08504436 -0.021941988 0.048731416 -0.03326029 0.102685735
0.12867959 0.006145386 -0.10162696 0.14316703 0.067269735 -0.0752479 -0.087119594 -0.16538168
0.17978363 -0.10119477 0.07167697 0.046927284 -0.014286185 0.03339745 -0.019545378 -0.08134335
-0.01727491 -0.08923578 0.007846185 0.20824714 0.061045803 -0.15511137 -0.1693041 -0.12198834
0.05456888 -0.017277656 0.015277786 -0.06581204 0.002456879 -0.08962364 0.087093465 0.038366146
0.008567615 -0.17785265 0.08097613 -0.12635593 -0.17934631 0.022281762 -0.081799984 0.14686427
-0.18954782 0.011297322 0.16318275 -0.01479813 0.06395974 -0.019090265 0.16422068 0.24534649
-0.22504887 -0.18756466 0.21556926 -0.13565357 0.002496521 0.09295855 -0.03744781 0.040729582
0.052169327 0.08613031 0.14960884 -0.024933709 0.06338762 0.12947918 0.083753 0.21274608
-0.15116835 0.12085981 -0.086901896 -0.18498622 -0.078693494 0.20308001 0.107722096 0.029566163
-0.06004004 0.13273156 0.05276331 0.11349324 -0.063614056 -0.047397867 0.011582464 0.027873805
-0.047364697 0.023395536 0.108086556 -0.011898593 0.059258755 0.0008814607 0.10530675 0.09363891
-0.040171534 -0.05869569 0.13365576 0.14329545 -0.019295357 0.22905709 -0.113141954 0.0019202
-0.024935203 -0.02005279 0.10386341 -0.027691538 -0.06426051 -0.013929607 -0.027219776 0.07674504
0.06513858 -0.02929288 -0.16489698 0.16312268 -0.015625097 -0.03172342 -0.06203523 0.023265254
0.20330128 -0.010675569 -0.11823918 0.011560627 0.059648614 0.080247164 0.13649425 0.026190635
0.01236339 0.06026489 -0.054726176 0.06290936 0.038850073 0.034461897 -0.16087474 -0.015117066
0.014309951 -0.13160971 0.06850589 -0.039004534 0.07468252 -0.06987822 0.03392517 -0.10299548

net.3.bias f4 [32]
00000000: 61cf d6bc 27ca 2d3e 76ec 75bd fe8e 043e
00000010: ce56 c83d a9fd 00bd e252 e73d e25c 4a3c
00000020: b019 173e d5a7 243e a2e7 db3b c9a1 05bd
00000030: 9016 f53d 612a 253d 0aa6 803d 3399 eb3d
00000040: e44d dbba f5d5 5b3d 25aa 143e ba6a fc3d
00000050: c01b 303c 29bb d9b9 7603 19bd 0903 003b
00000060: 009d 533d c650 a0bd baab 8bbd c99b 083d
00000070: 2f45 513d 5dfd b9bd 4882 57bd 330c 7cbd
-0.026221933 0.16971646 -0.06003996 0.12945172 0.09782182 -0.03149191 0.112951055 0.012351247
0.14755893 0.16079648 0.0067109624 -0.032624993 0.11967194 0.04032362 0.062816694 0.1150383
-0.0016731587 0.053670842 0.1451803 0.12325044 0.010748804 -0.0004152891 -0.037356816 0.001953306
0.0516634 -0.07827906 -0.068198636 0.033351693 0.05109137 -0.09081528 -0.05261448 -0.06153507

net.6.weight f4 [1, 32]
00000000: 0045 3b3e 7e5c 3abe eeda 253e 8c69 01be
00000010: 9ac3 2dbe 6804 04be 708a 7abe 4b1e cfbd
00000020: 7130 97bd 7e64 50be 7304 56be 3d66 4d3e
00000030: e90e bdbd 52c0 09be 213c cfbd c544 6b3e
00000040: fd74 6ebe 9a6d 34be 2e66 4ebe 0e13 d3bd
00000050: 045b cebd efbf 3cbe 8a43 733e 70f6 41be
00000060: 6835 623e c597 bdbd f9c0 65bd f4eb fc3d
00000070: adf3 58be 64b1 623e 4376 2ebe f89f 7fbd
0.1828804 -0.18199345 0.16196796 -0.12637919 -0.16969147 -0.12892306 -0.24466872 -0.101132
-0.07382286 -0.20350835 -0.20900135 0.20058532 -0.092313595 -0.1345227 -0.101188906 0.22975452
-0.23286815 -0.17619935 -0.20156166 -0.10306369 -0.100759536 -0.18432592 0.23756233 -0.18941665
0.22090685 -0.09257463 -0.056092236 0.12349692 -0.21186705 0.22137982 -0.17037301 -0.062408417
